…
2019-11-22 14:22:52.747268: I tensorflow/compiler/xla/service/service.cc:168] XLA service 0x7fa8ed7bf100 executing computations on platform Host. Devices:
2019-11-22 14:22:52.747318: I tensorflow/compiler/xla/service/service.cc:175]   StreamExecutor device (0): Host, Default Version
DEBUG:root:Model summary...
Model: "model_1"
__________________________________________________________________________________________________
Layer (type)                    Output Shape         Param #     Connected to                     
==================================================================================================
input_1 (InputLayer)            (None, 64, 64, 3)    0                                            
__________________________________________________________________________________________________
conv2d_1 (Conv2D)               (None, 64, 64, 16)   432         input_1[0][0]                    
__________________________________________________________________________________________________
batch_normalization_1 (BatchNor (None, 64, 64, 16)   64          conv2d_1[0][0]                   
__________________________________________________________________________________________________
activation_1 (Activation)       (None, 64, 64, 16)   0           batch_normalization_1[0][0]      
__________________________________________________________________________________________________
conv2d_2 (Conv2D)               (None, 64, 64, 128)  18432       activation_1[0][0]               
__________________________________________________________________________________________________
batch_normalization_2 (BatchNor (None, 64, 64, 128)  512         conv2d_2[0][0]                   
__________________________________________________________________________________________________
activation_2 (Activation)       (None, 64, 64, 128)  0           batch_normalization_2[0][0]      
__________________________________________________________________________________________________
conv2d_3 (Conv2D)               (None, 64, 64, 128)  147456      activation_2[0][0]               
__________________________________________________________________________________________________
conv2d_4 (Conv2D)               (None, 64, 64, 128)  2048        activation_1[0][0]               
__________________________________________________________________________________________________
add_1 (Add)                     (None, 64, 64, 128)  0           conv2d_3[0][0]                   
                                                                 conv2d_4[0][0]                   
__________________________________________________________________________________________________
batch_normalization_3 (BatchNor (None, 64, 64, 128)  512         add_1[0][0]                      
__________________________________________________________________________________________________
activation_3 (Activation)       (None, 64, 64, 128)  0           batch_normalization_3[0][0]      
__________________________________________________________________________________________________
conv2d_5 (Conv2D)               (None, 64, 64, 128)  147456      activation_3[0][0]               
__________________________________________________________________________________________________
batch_normalization_4 (BatchNor (None, 64, 64, 128)  512         conv2d_5[0][0]                   
__________________________________________________________________________________________________
activation_4 (Activation)       (None, 64, 64, 128)  0           batch_normalization_4[0][0]      
__________________________________________________________________________________________________
conv2d_6 (Conv2D)               (None, 64, 64, 128)  147456      activation_4[0][0]               
__________________________________________________________________________________________________
add_2 (Add)                     (None, 64, 64, 128)  0           conv2d_6[0][0]                   
                                                                 add_1[0][0]                      
__________________________________________________________________________________________________
batch_normalization_5 (BatchNor (None, 64, 64, 128)  512         add_2[0][0]                      
__________________________________________________________________________________________________
activation_5 (Activation)       (None, 64, 64, 128)  0           batch_normalization_5[0][0]      
__________________________________________________________________________________________________
conv2d_7 (Conv2D)               (None, 32, 32, 256)  294912      activation_5[0][0]               
__________________________________________________________________________________________________
batch_normalization_6 (BatchNor (None, 32, 32, 256)  1024        conv2d_7[0][0]                   
__________________________________________________________________________________________________
activation_6 (Activation)       (None, 32, 32, 256)  0           batch_normalization_6[0][0]      
__________________________________________________________________________________________________
conv2d_8 (Conv2D)               (None, 32, 32, 256)  589824      activation_6[0][0]               
__________________________________________________________________________________________________
conv2d_9 (Conv2D)               (None, 32, 32, 256)  32768       activation_5[0][0]               
__________________________________________________________________________________________________
add_3 (Add)                     (None, 32, 32, 256)  0           conv2d_8[0][0]                   
                                                                 conv2d_9[0][0]                   
__________________________________________________________________________________________________
batch_normalization_7 (BatchNor (None, 32, 32, 256)  1024        add_3[0][0]                      
__________________________________________________________________________________________________
activation_7 (Activation)       (None, 32, 32, 256)  0           batch_normalization_7[0][0]      
__________________________________________________________________________________________________
conv2d_10 (Conv2D)              (None, 32, 32, 256)  589824      activation_7[0][0]               
__________________________________________________________________________________________________
batch_normalization_8 (BatchNor (None, 32, 32, 256)  1024        conv2d_10[0][0]                  
__________________________________________________________________________________________________
activation_8 (Activation)       (None, 32, 32, 256)  0           batch_normalization_8[0][0]      
__________________________________________________________________________________________________
conv2d_11 (Conv2D)              (None, 32, 32, 256)  589824      activation_8[0][0]               
__________________________________________________________________________________________________
add_4 (Add)                     (None, 32, 32, 256)  0           conv2d_11[0][0]                  
                                                                 add_3[0][0]                      
__________________________________________________________________________________________________
batch_normalization_9 (BatchNor (None, 32, 32, 256)  1024        add_4[0][0]                      
__________________________________________________________________________________________________
activation_9 (Activation)       (None, 32, 32, 256)  0           batch_normalization_9[0][0]      
__________________________________________________________________________________________________
conv2d_12 (Conv2D)              (None, 16, 16, 512)  1179648     activation_9[0][0]               
__________________________________________________________________________________________________
batch_normalization_10 (BatchNo (None, 16, 16, 512)  2048        conv2d_12[0][0]                  
__________________________________________________________________________________________________
activation_10 (Activation)      (None, 16, 16, 512)  0           batch_normalization_10[0][0]     
__________________________________________________________________________________________________
conv2d_13 (Conv2D)              (None, 16, 16, 512)  2359296     activation_10[0][0]              
__________________________________________________________________________________________________DEBUG:root:Running training...

conv2d_14 (Conv2D)              (None, 16, 16, 512)  131072      activation_9[0][0]               
__________________________________________________________________________________________________
add_5 (Add)                     (None, 16, 16, 512)  0           conv2d_13[0][0]                  
                                                                 conv2d_14[0][0]                  
__________________________________________________________________________________________________
batch_normalization_11 (BatchNo (None, 16, 16, 512)  2048        add_5[0][0]                      
__________________________________________________________________________________________________
activation_11 (Activation)      (None, 16, 16, 512)  0           batch_normalization_11[0][0]     
__________________________________________________________________________________________________
conv2d_15 (Conv2D)              (None, 16, 16, 512)  2359296     activation_11[0][0]              
__________________________________________________________________________________________________
batch_normalization_12 (BatchNo (None, 16, 16, 512)  2048        conv2d_15[0][0]                  
__________________________________________________________________________________________________
activation_12 (Activation)      (None, 16, 16, 512)  0           batch_normalization_12[0][0]     
__________________________________________________________________________________________________
conv2d_16 (Conv2D)              (None, 16, 16, 512)  2359296     activation_12[0][0]              
__________________________________________________________________________________________________
add_6 (Add)                     (None, 16, 16, 512)  0           conv2d_16[0][0]                  
                                                                 add_5[0][0]                      
__________________________________________________________________________________________________
batch_normalization_13 (BatchNo (None, 16, 16, 512)  2048        add_6[0][0]                      
__________________________________________________________________________________________________
activation_13 (Activation)      (None, 16, 16, 512)  0           batch_normalization_13[0][0]     
__________________________________________________________________________________________________
average_pooling2d_1 (AveragePoo (None, 16, 16, 512)  0           activation_13[0][0]              
__________________________________________________________________________________________________
flatten_1 (Flatten)             (None, 131072)       0           average_pooling2d_1[0][0]        
__________________________________________________________________________________________________
pred_gender (Dense)             (None, 2)            262144      flatten_1[0][0]                  
__________________________________________________________________________________________________
pred_age (Dense)                (None, 101)          13238272    flatten_1[0][0]                  
==================================================================================================
Total params: 24,463,856
Trainable params: 24,456,656
Non-trainable params: 7,200
__________________________________________________________________________________________________
Train on 21337 samples, validate on 2371 samples
Epoch 1/30

   32/21337 [..............................] - ETA: 3:58:14 - loss: 10.1594 - pred_gender_loss: 0.7394 - pred_age_loss: 4.8236 - pred_gender_accuracy: 0.5625 - pred_age_accuracy: 0.0000e+00
…
